…
I1204 14:36:37.666906 17293 solver.cpp:102] Creating training net from net file: models/Example/example.prototxt
I1204 14:36:37.667796 17293 net.cpp:296] The NetState phase (0) differed from the phase (1) specified by a rule in layer MyData
I1204 14:36:37.667879 17293 net.cpp:53] Initializing net from parameters: 
name: "example_Network"
state {
  phase: TRAIN
  level: 0
  stage: ""
}
layer {
  name: "MyData"
  type: "HDF5Data"
  top: "data"
  top: "label"
  include {
    phase: TRAIN
  }
  hdf5_data_param {
    source: "dataset/train.txt"
    batch_size: 64
    shuffle: true
  }
}
layer {
  name: "conv1"
  type: "Convolution"
  bottom: "data"
  top: "conv1"
  param {
    lr_mult: 1
    decay_mult: 1
  }
  param {
    lr_mult: 2
    decay_mult: 0
  }
  convolution_param {
    num_output: 20
    kernel_size: 5
    stride: 1
    weight_filler {
      type: "xavier"
      variance_norm: AVERAGE
    }
    bias_filler {
      type: "constant"
      value: 0
    }
  }
}
layer {
  name: "relu1"
  type: "ReLU"
  bottom: "conv1"
  top: "conv1"
}
layer {
  name: "pool1"
  type: "Pooling"
  bottom: "conv1"
  top: "pool1"
  pooling_param {
    pool: MAX
    kernel_size: 2
    stride: 2
  }
}
layer {
  name: "dropout1"
  type: "Dropout"
  bottom: "pool1"
  top: "pool1"
  dropout_param {
    dropout_ratio: 0.1
  }
}
layer {
  name: "conv2"
  type: "Convolution"
  bottom: "pool1"
  top: "conv2"
  param {
    lr_mult: 1
    decay_mult: 1
  }
  param {
    lr_mult: 2
    decay_mult: 0
  }
  convolution_param {
    num_output: 48
    kernel_size: 5
    stride: 1
    weight_filler {
      type: "xavier"
      variance_norm: AVERAGE
    }
    bias_filler {
      type: "constant"
      value: 0
    }
  }
}
layer {
  name: "relu2"
  type: "ReLU"
  bottom: "conv2"
  top: "conv2"
}
layer {
  name: "pool2"
  type: "Pooling"
  bottom: "conv2"
  top: "pool2"
  pooling_param {
    pool: MAX
    kernel_size: 2
    stride: 2
  }
}
layer {
  name: "dropout2"
  type: "Dropout"
  bottom: "pool2"
  top: "pool2"
  dropout_param {
    dropout_ratio: 0.3
  }
}
layer {
  name: "conv3"
  type: "Convolution"
  bottom: "pool2"
  top: "conv3"
  param {
    lr_mult: 1
    decay_mult: 1
  }
  param {
    lr_mult: 2
    decay_mult: 0
  }
  convolution_param {
    num_output: 64
    kernel_size: 3
    stride: 1
    weight_filler {
      type: "xavier"
      variance_norm: AVERAGE
    }
    bias_filler {
      type: "constant"
      value: 0
    }
  }
}
layer {
  name: "relu3"
  type: "ReLU"
  bottom: "conv3"
  top: "conv3"
}
layer {
  name: "dropout3"
  type: "Dropout"
  bottom: "conv3"
  top: "conv3"
  dropout_param {
    dropout_ratio: 0.5
  }
}
layer {
  name: "fc5"
  type: "InnerProduct"
  bottom: "conv3"
  top: "fc5"
  param {
    lr_mult: 10
    decay_mult: 1
  }
  param {
    lr_mult: 20
    decay_mult: 0
  }
  inner_product_param {
    num_output: 500
    weight_filler {
      type: "xavier"
      variance_norm: AVERAGE
    }
    bias_filler {
      type: "constant"
      value: 0
    }
  }
}
layer {
  name: "drop4"
  type: "Dropout"
  bottom: "fc5"
  top: "fc5"
  dropout_param {
    dropout_ratio: 0.5
  }
}
layer {
  name: "fc6"
  type: "InnerProduct"
  bottom: "fc5"
  top: "fc6"
  param {
    lr_mult: 10
    decay_mult: 1
  }
  param {
    lr_mult: 20
    decay_mult: 0
  }
  inner_product_param {
    num_output: 30
    weight_filler {
      type: "xavier"
      variance_norm: AVERAGE
    }
    bias_filler {
      type: "constant"
      value: 0
    }
  }
}
layer {
  name: "loss"
  type: "EuclideanLoss"
  bottom: "fc6"
  bottom: "label"
  top: "loss"
}
I1204 14:36:37.668664 17293 layer_factory.hpp:77] Creating layer MyData
I1204 14:36:37.668707 17293 net.cpp:86] Creating Layer MyData
I1204 14:36:37.668730 17293 net.cpp:382] MyData -> data
I1204 14:36:37.668783 17293 net.cpp:382] MyData -> label
I1204 14:36:37.668812 17293 hdf5_data_layer.cpp:81] Loading list of HDF5 filenames from: dataset/train.txt
I1204 14:36:37.668903 17293 hdf5_data_layer.cpp:95] Number of HDF5 files: 1
I1204 14:36:37.671526 17293 hdf5.cpp:33] Datatype class: H5T_FLOAT
I1204 14:36:38.325181 17293 net.cpp:124] Setting up MyData
I1204 14:36:38.325242 17293 net.cpp:131] Top shape: 64 1 96 96 (589824)
I1204 14:36:38.325296 17293 net.cpp:131] Top shape: 64 30 (1920)
I1204 14:36:38.325314 17293 net.cpp:139] Memory required for data: 2366976
I1204 14:36:38.325335 17293 layer_factory.hpp:77] Creating layer conv1
I1204 14:36:38.325389 17293 net.cpp:86] Creating Layer conv1
I1204 14:36:38.325405 17293 net.cpp:408] conv1 <- data
I1204 14:36:38.325439 17293 net.cpp:382] conv1 -> conv1
I1204 14:36:38.327247 17293 net.cpp:124] Setting up conv1
I1204 14:36:38.327283 17293 net.cpp:131] Top shape: 64 20 92 92 (10833920)
I1204 14:36:38.327304 17293 net.cpp:139] Memory required for data: 45702656
I1204 14:36:38.327433 17293 layer_factory.hpp:77] Creating layer relu1
I1204 14:36:38.327481 17293 net.cpp:86] Creating Layer relu1
I1204 14:36:38.327494 17293 net.cpp:408] relu1 <- conv1
I1204 14:36:38.327512 17293 net.cpp:369] relu1 -> conv1 (in-place)
I1204 14:36:38.327533 17293 net.cpp:124] Setting up relu1
I1204 14:36:38.327543 17293 net.cpp:131] Top shape: 64 20 92 92 (10833920)
I1204 14:36:38.327558 17293 net.cpp:139] Memory required for data: 89038336
I1204 14:36:38.327569 17293 layer_factory.hpp:77] Creating layer pool1
I1204 14:36:38.327585 17293 net.cpp:86] Creating Layer pool1
I1204 14:36:38.327596 17293 net.cpp:408] pool1 <- conv1
I1204 14:36:38.327610 17293 net.cpp:382] pool1 -> pool1
I1204 14:36:38.327711 17293 net.cpp:124] Setting up pool1
I1204 14:36:38.327725 17293 net.cpp:131] Top shape: 64 20 46 46 (2708480)
I1204 14:36:38.327741 17293 net.cpp:139] Memory required for data: 99872256
I1204 14:36:38.327754 17293 layer_factory.hpp:77] Creating layer dropout1
I1204 14:36:38.327772 17293 net.cpp:86] Creating Layer dropout1
I1204 14:36:38.327788 17293 net.cpp:408] dropout1 <- pool1
I1204 14:36:38.327805 17293 net.cpp:369] dropout1 -> pool1 (in-place)
I1204 14:36:38.327863 17293 net.cpp:124] Setting up dropout1
I1204 14:36:38.327877 17293 net.cpp:131] Top shape: 64 20 46 46 (2708480)
I1204 14:36:38.327893 17293 net.cpp:139] Memory required for data: 110706176
I1204 14:36:38.327903 17293 layer_factory.hpp:77] Creating layer conv2
I1204 14:36:38.327934 17293 net.cpp:86] Creating Layer conv2
I1204 14:36:38.327945 17293 net.cpp:408] conv2 <- pool1
I1204 14:36:38.327963 17293 net.cpp:382] conv2 -> conv2
I1204 14:36:38.329166 17293 net.cpp:124] Setting up conv2
I1204 14:36:38.329192 17293 net.cpp:131] Top shape: 64 48 42 42 (5419008)
I1204 14:36:38.329210 17293 net.cpp:139] Memory required for data: 132382208
I1204 14:36:38.329236 17293 layer_factory.hpp:77] Creating layer relu2
I1204 14:36:38.329253 17293 net.cpp:86] Creating Layer relu2
I1204 14:36:38.329263 17293 net.cpp:408] relu2 <- conv2
I1204 14:36:38.329279 17293 net.cpp:369] relu2 -> conv2 (in-place)
I1204 14:36:38.329298 17293 net.cpp:124] Setting up relu2
I1204 14:36:38.329308 17293 net.cpp:131] Top shape: 64 48 42 42 (5419008)
I1204 14:36:38.329321 17293 net.cpp:139] Memory required for data: 154058240
I1204 14:36:38.329331 17293 layer_factory.hpp:77] Creating layer pool2
I1204 14:36:38.329408 17293 net.cpp:86] Creating Layer pool2
I1204 14:36:38.329419 17293 net.cpp:408] pool2 <- conv2
I1204 14:36:38.329435 17293 net.cpp:382] pool2 -> pool2
I1204 14:36:38.329532 17293 net.cpp:124] Setting up pool2
I1204 14:36:38.329550 17293 net.cpp:131] Top shape: 64 48 21 21 (1354752)
I1204 14:36:38.329566 17293 net.cpp:139] Memory required for data: 159477248
I1204 14:36:38.329599 17293 layer_factory.hpp:77] Creating layer dropout2
I1204 14:36:38.329620 17293 net.cpp:86] Creating Layer dropout2
I1204 14:36:38.329632 17293 net.cpp:408] dropout2 <- pool2
I1204 14:36:38.329646 17293 net.cpp:369] dropout2 -> pool2 (in-place)
I1204 14:36:38.329696 17293 net.cpp:124] Setting up dropout2
I1204 14:36:38.329710 17293 net.cpp:131] Top shape: 64 48 21 21 (1354752)
I1204 14:36:38.329725 17293 net.cpp:139] Memory required for data: 164896256
I1204 14:36:38.329738 17293 layer_factory.hpp:77] Creating layer conv3
I1204 14:36:38.329763 17293 net.cpp:86] Creating Layer conv3
I1204 14:36:38.329773 17293 net.cpp:408] conv3 <- pool2
I1204 14:36:38.329792 17293 net.cpp:382] conv3 -> conv3
I1204 14:36:38.330845 17293 net.cpp:124] Setting up conv3
I1204 14:36:38.330870 17293 net.cpp:131] Top shape: 64 64 19 19 (1478656)
I1204 14:36:38.330888 17293 net.cpp:139] Memory required for data: 170810880
I1204 14:36:38.330916 17293 layer_factory.hpp:77] Creating layer relu3
I1204 14:36:38.330934 17293 net.cpp:86] Creating Layer relu3
I1204 14:36:38.330945 17293 net.cpp:408] relu3 <- conv3
I1204 14:36:38.330960 17293 net.cpp:369] relu3 -> conv3 (in-place)
I1204 14:36:38.330976 17293 net.cpp:124] Setting up relu3
I1204 14:36:38.330986 17293 net.cpp:131] Top shape: 64 64 19 19 (1478656)
I1204 14:36:38.331001 17293 net.cpp:139] Memory required for data: 176725504
I1204 14:36:38.331010 17293 layer_factory.hpp:77] Creating layer dropout3
I1204 14:36:38.331025 17293 net.cpp:86] Creating Layer dropout3
I1204 14:36:38.331034 17293 net.cpp:408] dropout3 <- conv3
I1204 14:36:38.331048 17293 net.cpp:369] dropout3 -> conv3 (in-place)
I1204 14:36:38.331101 17293 net.cpp:124] Setting up dropout3
I1204 14:36:38.331113 17293 net.cpp:131] Top shape: 64 64 19 19 (1478656)
I1204 14:36:38.331128 17293 net.cpp:139] Memory required for data: 182640128
I1204 14:36:38.331140 17293 layer_factory.hpp:77] Creating layer fc5
I1204 14:36:38.331158 17293 net.cpp:86] Creating Layer fc5
I1204 14:36:38.331172 17293 net.cpp:408] fc5 <- conv3
I1204 14:36:38.331190 17293 net.cpp:382] fc5 -> fc5
I1204 14:36:38.515139 17293 net.cpp:124] Setting up fc5
I1204 14:36:38.515192 17293 net.cpp:131] Top shape: 64 500 (32000)
I1204 14:36:38.515223 17293 net.cpp:139] Memory required for data: 182768128
I1204 14:36:38.515254 17293 layer_factory.hpp:77] Creating layer drop4
I1204 14:36:38.515280 17293 net.cpp:86] Creating Layer drop4
I1204 14:36:38.515291 17293 net.cpp:408] drop4 <- fc5
I1204 14:36:38.515311 17293 net.cpp:369] drop4 -> fc5 (in-place)
I1204 14:36:38.515388 17293 net.cpp:124] Setting up drop4
I1204 14:36:38.515401 17293 net.cpp:131] Top shape: 64 500 (32000)
I1204 14:36:38.515462 17293 net.cpp:139] Memory required for data: 182896128
I1204 14:36:38.515475 17293 layer_factory.hpp:77] Creating layer fc6
I1204 14:36:38.515496 17293 net.cpp:86] Creating Layer fc6
I1204 14:36:38.515506 17293 net.cpp:408] fc6 <- fc5
I1204 14:36:38.515524 17293 net.cpp:382] fc6 -> fc6
I1204 14:36:38.516010 17293 net.cpp:124] Setting up fc6
I1204 14:36:38.516031 17293 net.cpp:131] Top shape: 64 30 (1920)
I1204 14:36:38.516047 17293 net.cpp:139] Memory required for data: 182903808
I1204 14:36:38.516082 17293 layer_factory.hpp:77] Creating layer loss
I1204 14:36:38.516100 17293 net.cpp:86] Creating Layer loss
I1204 14:36:38.516110 17293 net.cpp:408] loss <- fc6
I1204 14:36:38.516122 17293 net.cpp:408] loss <- label
I1204 14:36:38.516144 17293 net.cpp:382] loss -> loss
I1204 14:36:38.516237 17293 net.cpp:124] Setting up loss
…
I1204 14:36:38.517518 17293 solver.cpp:190] Creating test net (#0) specified by net file: models/Example/example.prototxt
I1204 14:36:38.517612 17293 net.cpp:296] The NetState phase (1) differed from the phase (0) specified by a rule in layer MyData
I1204 14:36:38.517679 17293 net.cpp:53] Initializing net from parameters: 
name: "example_Network"
state {
  phase: TEST
}
layer {
  name: "MyData"
  type: "HDF5Data"
  top: "data"
  top: "label"
  include {
    phase: TEST
  }
  hdf5_data_param {
    source: "dataset/test.txt"
    batch_size: 100
  }
}
layer {
  name: "conv1"
  type: "Convolution"
  bottom: "data"
  top: "conv1"
  param {
    lr_mult: 1
    decay_mult: 1
  }
  param {
    lr_mult: 2
    decay_mult: 0
  }
  convolution_param {
    num_output: 20
    kernel_size: 5
    stride: 1
    weight_filler {
      type: "xavier"
      variance_norm: AVERAGE
    }
    bias_filler {
      type: "constant"
      value: 0
    }
  }
}
layer {
  name: "relu1"
  type: "ReLU"
  bottom: "conv1"
  top: "conv1"
}
layer {
  name: "pool1"
  type: "Pooling"
  bottom: "conv1"
  top: "pool1"
  pooling_param {
    pool: MAX
    kernel_size: 2
    stride: 2
  }
}
layer {
  name: "dropout1"
  type: "Dropout"
  bottom: "pool1"
  top: "pool1"
  dropout_param {
    dropout_ratio: 0.1
  }
}
layer {
  name: "conv2"
  type: "Convolution"
  bottom: "pool1"
  top: "conv2"
  param {
    lr_mult: 1
    decay_mult: 1
  }
  param {
    lr_mult: 2
    decay_mult: 0
  }
  convolution_param {
    num_output: 48
    kernel_size: 5
    stride: 1
    weight_filler {
      type: "xavier"
      variance_norm: AVERAGE
    }
    bias_filler {
      type: "constant"
      value: 0
    }
  }
}
layer {
  name: "relu2"
  type: "ReLU"
  bottom: "conv2"
  top: "conv2"
}
layer {
  name: "pool2"
  type: "Pooling"
  bottom: "conv2"
  top: "pool2"
  pooling_param {
    pool: MAX
    kernel_size: 2
    stride: 2
  }
}
layer {
  name: "dropout2"
  type: "Dropout"
  bottom: "pool2"
  top: "pool2"
  dropout_param {
    dropout_ratio: 0.3
  }
}
layer {
  name: "conv3"
  type: "Convolution"
  bottom: "pool2"
  top: "conv3"
  param {
    lr_mult: 1
    decay_mult: 1
  }
  param {
    lr_mult: 2
    decay_mult: 0
  }
  convolution_param {
    num_output: 64
    kernel_size: 3
    stride: 1
    weight_filler {
      type: "xavier"
      variance_norm: AVERAGE
    }
    bias_filler {
      type: "constant"
      value: 0
    }
  }
}
layer {
  name: "relu3"
  type: "ReLU"
  bottom: "conv3"
  top: "conv3"
}
layer {
  name: "dropout3"
  type: "Dropout"
  bottom: "conv3"
  top: "conv3"
  dropout_param {
    dropout_ratio: 0.5
  }
}
layer {
  name: "fc5"
  type: "InnerProduct"
  bottom: "conv3"
  top: "fc5"
  param {
    lr_mult: 10
    decay_mult: 1
  }
  param {
    lr_mult: 20
    decay_mult: 0
  }
  inner_product_param {
    num_output: 500
    weight_filler {
      type: "xavier"
      variance_norm: AVERAGE
    }
    bias_filler {
      type: "constant"
      value: 0
    }
  }
}
layer {
  name: "drop4"
  type: "Dropout"
  bottom: "fc5"
  top: "fc5"
  dropout_param {
    dropout_ratio: 0.5
  }
}
layer {
  name: "fc6"
  type: "InnerProduct"
  bottom: "fc5"
  top: "fc6"
  param {
    lr_mult: 10
    decay_mult: 1
  }
  param {
    lr_mult: 20
    decay_mult: 0
  }
  inner_product_param {
    num_output: 30
    weight_filler {
      type: "xavier"
      variance_norm: AVERAGE
    }
    bias_filler {
      type: "constant"
      value: 0
    }
  }
}
layer {
  name: "loss"
  type: "EuclideanLoss"
  bottom: "fc6"
  bottom: "label"
  top: "loss"
}
I1204 14:36:38.518355 17293 layer_factory.hpp:77] Creating layer MyData
I1204 14:36:38.518385 17293 net.cpp:86] Creating Layer MyData
I1204 14:36:38.518401 17293 net.cpp:382] MyData -> data
I1204 14:36:38.518424 17293 net.cpp:382] MyData -> label
I1204 14:36:38.518443 17293 hdf5_data_layer.cpp:81] Loading list of HDF5 filenames from: dataset/test.txt
I1204 14:36:38.518508 17293 hdf5_data_layer.cpp:95] Number of HDF5 files: 1
I1204 14:36:38.747522 17293 net.cpp:124] Setting up MyData
I1204 14:36:38.747589 17293 net.cpp:131] Top shape: 100 1 96 96 (921600)
I1204 14:36:38.747620 17293 net.cpp:131] Top shape: 100 30 (3000)
I1204 14:36:38.747637 17293 net.cpp:139] Memory required for data: 3698400
I1204 14:36:38.747658 17293 layer_factory.hpp:77] Creating layer conv1
I1204 14:36:38.747704 17293 net.cpp:86] Creating Layer conv1
I1204 14:36:38.747715 17293 net.cpp:408] conv1 <- data
I1204 14:36:38.747738 17293 net.cpp:382] conv1 -> conv1
I1204 14:36:38.748466 17293 net.cpp:124] Setting up conv1
I1204 14:36:38.748489 17293 net.cpp:131] Top shape: 100 20 92 92 (16928000)
I1204 14:36:38.748507 17293 net.cpp:139] Memory required for data: 71410400
I1204 14:36:38.748536 17293 layer_factory.hpp:77] Creating layer relu1
I1204 14:36:38.748558 17293 net.cpp:86] Creating Layer relu1
I1204 14:36:38.748569 17293 net.cpp:408] relu1 <- conv1
I1204 14:36:38.748584 17293 net.cpp:369] relu1 -> conv1 (in-place)
I1204 14:36:38.748602 17293 net.cpp:124] Setting up relu1
I1204 14:36:38.748611 17293 net.cpp:131] Top shape: 100 20 92 92 (16928000)
I1204 14:36:38.748626 17293 net.cpp:139] Memory required for data: 139122400
I1204 14:36:38.748636 17293 layer_factory.hpp:77] Creating layer pool1
I1204 14:36:38.748652 17293 net.cpp:86] Creating Layer pool1
I1204 14:36:38.748663 17293 net.cpp:408] pool1 <- conv1
I1204 14:36:38.748677 17293 net.cpp:382] pool1 -> pool1
I1204 14:36:38.748761 17293 net.cpp:124] Setting up pool1
I1204 14:36:38.748775 17293 net.cpp:131] Top shape: 100 20 46 46 (4232000)
I1204 14:36:38.748790 17293 net.cpp:139] Memory required for data: 156050400
I1204 14:36:38.748801 17293 layer_factory.hpp:77] Creating layer dropout1
I1204 14:36:38.748821 17293 net.cpp:86] Creating Layer dropout1
I1204 14:36:38.748831 17293 net.cpp:408] dropout1 <- pool1
I1204 14:36:38.748847 17293 net.cpp:369] dropout1 -> pool1 (in-place)
I1204 14:36:38.748896 17293 net.cpp:124] Setting up dropout1
I1204 14:36:38.748911 17293 net.cpp:131] Top shape: 100 20 46 46 (4232000)
I1204 14:36:38.748981 17293 net.cpp:139] Memory required for data: 172978400
I1204 14:36:38.749001 17293 layer_factory.hpp:77] Creating layer conv2
I1204 14:36:38.749053 17293 net.cpp:86] Creating Layer conv2
I1204 14:36:38.749063 17293 net.cpp:408] conv2 <- pool1
I1204 14:36:38.749081 17293 net.cpp:382] conv2 -> conv2
I1204 14:36:38.750010 17293 net.cpp:124] Setting up conv2
I1204 14:36:38.750036 17293 net.cpp:131] Top shape: 100 48 42 42 (8467200)
I1204 14:36:38.750082 17293 net.cpp:139] Memory required for data: 206847200
I1204 14:36:38.750106 17293 layer_factory.hpp:77] Creating layer relu2
I1204 14:36:38.750197 17293 net.cpp:86] Creating Layer relu2
I1204 14:36:38.750208 17293 net.cpp:408] relu2 <- conv2
I1204 14:36:38.750223 17293 net.cpp:369] relu2 -> conv2 (in-place)
I1204 14:36:38.750306 17293 net.cpp:124] Setting up relu2
I1204 14:36:38.750317 17293 net.cpp:131] Top shape: 100 48 42 42 (8467200)
I1204 14:36:38.750332 17293 net.cpp:139] Memory required for data: 240716000
I1204 14:36:38.750346 17293 layer_factory.hpp:77] Creating layer pool2
I1204 14:36:38.750362 17293 net.cpp:86] Creating Layer pool2
I1204 14:36:38.750372 17293 net.cpp:408] pool2 <- conv2
I1204 14:36:38.750387 17293 net.cpp:382] pool2 -> pool2
I1204 14:36:38.750490 17293 net.cpp:124] Setting up pool2
I1204 14:36:38.750510 17293 net.cpp:131] Top shape: 100 48 21 21 (2116800)
I1204 14:36:38.750526 17293 net.cpp:139] Memory required for data: 249183200
I1204 14:36:38.750537 17293 layer_factory.hpp:77] Creating layer dropout2
I1204 14:36:38.750558 17293 net.cpp:86] Creating Layer dropout2
I1204 14:36:38.750569 17293 net.cpp:408] dropout2 <- pool2
I1204 14:36:38.750583 17293 net.cpp:369] dropout2 -> pool2 (in-place)
I1204 14:36:38.750632 17293 net.cpp:124] Setting up dropout2
I1204 14:36:38.750644 17293 net.cpp:131] Top shape: 100 48 21 21 (2116800)
I1204 14:36:38.750659 17293 net.cpp:139] Memory required for data: 257650400
I1204 14:36:38.750670 17293 layer_factory.hpp:77] Creating layer conv3
I1204 14:36:38.750694 17293 net.cpp:86] Creating Layer conv3
I1204 14:36:38.750733 17293 net.cpp:408] conv3 <- pool2
I1204 14:36:38.750752 17293 net.cpp:382] conv3 -> conv3
I1204 14:36:38.751772 17293 net.cpp:124] Setting up conv3
I1204 14:36:38.751797 17293 net.cpp:131] Top shape: 100 64 19 19 (2310400)
I1204 14:36:38.751816 17293 net.cpp:139] Memory required for data: 266892000
I1204 14:36:38.751842 17293 layer_factory.hpp:77] Creating layer relu3
I1204 14:36:38.751860 17293 net.cpp:86] Creating Layer relu3
I1204 14:36:38.751870 17293 net.cpp:408] relu3 <- conv3
I1204 14:36:38.751885 17293 net.cpp:369] relu3 -> conv3 (in-place)
I1204 14:36:38.751904 17293 net.cpp:124] Setting up relu3
I1204 14:36:38.751912 17293 net.cpp:131] Top shape: 100 64 19 19 (2310400)
I1204 14:36:38.751927 17293 net.cpp:139] Memory required for data: 276133600
I1204 14:36:38.751937 17293 layer_factory.hpp:77] Creating layer dropout3
I1204 14:36:38.751957 17293 net.cpp:86] Creating Layer dropout3
I1204 14:36:38.751969 17293 net.cpp:408] dropout3 <- conv3
I1204 14:36:38.751982 17293 net.cpp:369] dropout3 -> conv3 (in-place)
I1204 14:36:38.752035 17293 net.cpp:124] Setting up dropout3
I1204 14:36:38.752048 17293 net.cpp:131] Top shape: 100 64 19 19 (2310400)
I1204 14:36:38.752063 17293 net.cpp:139] Memory required for data: 285375200
I1204 14:36:38.752071 17293 layer_factory.hpp:77] Creating layer fc5
I1204 14:36:38.752091 17293 net.cpp:86] Creating Layer fc5
I1204 14:36:38.752110 17293 net.cpp:408] fc5 <- conv3
I1204 14:36:38.752128 17293 net.cpp:382] fc5 -> fc5
I1204 14:36:38.936254 17293 net.cpp:124] Setting up fc5
I1204 14:36:38.936309 17293 net.cpp:131] Top shape: 100 500 (50000)
I1204 14:36:38.936338 17293 net.cpp:139] Memory required for data: 285575200
I1204 14:36:38.936369 17293 layer_factory.hpp:77] Creating layer drop4
I1204 14:36:38.936396 17293 net.cpp:86] Creating Layer drop4
I1204 14:36:38.936410 17293 net.cpp:408] drop4 <- fc5
I1204 14:36:38.936429 17293 net.cpp:369] drop4 -> fc5 (in-place)
I1204 14:36:38.936496 17293 net.cpp:124] Setting up drop4
I1204 14:36:38.936508 17293 net.cpp:131] Top shape: 100 500 (50000)
I1204 14:36:38.936550 17293 net.cpp:139] Memory required for data: 285775200
I1204 14:36:38.936561 17293 layer_factory.hpp:77] Creating layer fc6
I1204 14:36:38.936583 17293 net.cpp:86] Creating Layer fc6
I1204 14:36:38.936595 17293 net.cpp:408] fc6 <- fc5
I1204 14:36:38.936614 17293 net.cpp:382] fc6 -> fc6
I1204 14:36:38.937103 17293 net.cpp:124] Setting up fc6
I1204 14:36:38.937126 17293 net.cpp:131] Top shape: 100 30 (3000)
I1204 14:36:38.937141 17293 net.cpp:139] Memory required for data: 285787200
I1204 14:36:38.937172 17293 layer_factory.hpp:77] Creating layer loss
I1204 14:36:38.937191 17293 net.cpp:86] Creating Layer loss
I1204 14:36:38.937201 17293 net.cpp:408] loss <- fc6
I1204 14:36:38.937213 17293 net.cpp:408] loss <- label
I1204 14:36:38.937288 17293 net.cpp:382] loss -> loss
I1204 14:36:38.937386 17293 net.cpp:124] Setting up loss
…
