…
I1128 14:59:48.540392  4214 solver.cpp:102] Creating training net from net file: models/Example/example.prototxt
I1128 14:59:48.541309  4214 net.cpp:296] The NetState phase (0) differed from the phase (1) specified by a rule in layer MyData
I1128 14:59:48.541405  4214 net.cpp:53] Initializing net from parameters: 
name: "example_Network"
state {
  phase: TRAIN
  level: 0
  stage: ""
}
layer {
  name: "MyData"
  type: "HDF5Data"
  top: "data"
  top: "label"
  include {
    phase: TRAIN
  }
  hdf5_data_param {
    source: "dataset/train_data_list.txt"
    batch_size: 128
    shuffle: true
  }
}
layer {
  name: "conv1"
  type: "Convolution"
  bottom: "data"
  top: "conv1"
  param {
    lr_mult: 1
    decay_mult: 1
  }
  param {
    lr_mult: 2
    decay_mult: 0
  }
  convolution_param {
    num_output: 20
    kernel_size: 5
    stride: 1
    weight_filler {
      type: "xavier"
      variance_norm: AVERAGE
    }
    bias_filler {
      type: "constant"
      value: 0
    }
  }
}
layer {
  name: "relu1"
  type: "ReLU"
  bottom: "conv1"
  top: "conv1"
}
layer {
  name: "pool1"
  type: "Pooling"
  bottom: "conv1"
  top: "pool1"
  pooling_param {
    pool: MAX
    kernel_size: 2
    stride: 2
  }
}
layer {
  name: "dropout1"
  type: "Dropout"
  bottom: "pool1"
  top: "pool1"
  dropout_param {
    dropout_ratio: 0.1
  }
}
layer {
  name: "conv2"
  type: "Convolution"
  bottom: "pool1"
  top: "conv2"
  param {
    lr_mult: 1
    decay_mult: 1
  }
  param {
    lr_mult: 2
    decay_mult: 0
  }
  convolution_param {
    num_output: 48
    kernel_size: 5
    stride: 1
    weight_filler {
      type: "xavier"
      variance_norm: AVERAGE
    }
    bias_filler {
      type: "constant"
      value: 0
    }
  }
}
layer {
  name: "relu2"
  type: "ReLU"
  bottom: "conv2"
  top: "conv2"
}
layer {
  name: "pool2"
  type: "Pooling"
  bottom: "conv2"
  top: "pool2"
  pooling_param {
    pool: MAX
    kernel_size: 2
    stride: 2
  }
}
layer {
  name: "dropout2"
  type: "Dropout"
  bottom: "pool2"
  top: "pool2"
  dropout_param {
    dropout_ratio: 0.3
  }
}
layer {
  name: "conv3"
  type: "Convolution"
  bottom: "pool2"
  top: "conv3"
  param {
    lr_mult: 1
    decay_mult: 1
  }
  param {
    lr_mult: 2
    decay_mult: 0
  }
  convolution_param {
    num_output: 64
    kernel_size: 3
    stride: 1
    weight_filler {
      type: "xavier"
      variance_norm: AVERAGE
    }
    bias_filler {
      type: "constant"
      value: 0
    }
  }
}
layer {
  name: "relu3"
  type: "ReLU"
  bottom: "conv3"
  top: "conv3"
}
layer {
  name: "dropout3"
  type: "Dropout"
  bottom: "conv3"
  top: "conv3"
  dropout_param {
    dropout_ratio: 0.5
  }
}
layer {
  name: "fc5"
  type: "InnerProduct"
  bottom: "conv3"
  top: "fc5"
  param {
    lr_mult: 10
    decay_mult: 1
  }
  param {
    lr_mult: 20
    decay_mult: 0
  }
  inner_product_param {
    num_output: 500
    weight_filler {
      type: "xavier"
      variance_norm: AVERAGE
    }
    bias_filler {
      type: "constant"
      value: 0
    }
  }
}
layer {
  name: "drop4"
  type: "Dropout"
  bottom: "fc5"
  top: "fc5"
  dropout_param {
    dropout_ratio: 0.5
  }
}
layer {
  name: "fc6"
  type: "InnerProduct"
  bottom: "fc5"
  top: "fc6"
  param {
    lr_mult: 10
    decay_mult: 1
  }
  param {
    lr_mult: 20
    decay_mult: 0
  }
  inner_product_param {
    num_output: 30
    weight_filler {
      type: "xavier"
      variance_norm: AVERAGE
    }
    bias_filler {
      type: "constant"
      value: 0
    }
  }
}
layer {
  name: "loss"
  type: "EuclideanLoss"
  bottom: "fc6"
  bottom: "label"
  top: "loss"
}
I1128 14:59:48.542196  4214 layer_factory.hpp:77] Creating layer MyData
I1128 14:59:48.542259  4214 net.cpp:86] Creating Layer MyData
I1128 14:59:48.542290  4214 net.cpp:382] MyData -> data
I1128 14:59:48.542368  4214 net.cpp:382] MyData -> label
I1128 14:59:48.542457  4214 hdf5_data_layer.cpp:81] Loading list of HDF5 filenames from: dataset/train_data_list.txt
I1128 14:59:48.543500  4214 hdf5_data_layer.cpp:95] Number of HDF5 files: 1
I1128 14:59:48.547780  4214 hdf5.cpp:33] Datatype class: H5T_FLOAT
I1128 14:59:48.810657  4214 net.cpp:124] Setting up MyData
I1128 14:59:48.810760  4214 net.cpp:131] Top shape: 128 1 96 96 (1179648)
I1128 14:59:48.810812  4214 net.cpp:131] Top shape: 128 30 (3840)
I1128 14:59:48.810839  4214 net.cpp:139] Memory required for data: 4733952
I1128 14:59:48.810879  4214 layer_factory.hpp:77] Creating layer conv1
I1128 14:59:48.810976  4214 net.cpp:86] Creating Layer conv1
I1128 14:59:48.811022  4214 net.cpp:408] conv1 <- data
I1128 14:59:48.811094  4214 net.cpp:382] conv1 -> conv1
I1128 14:59:48.817664  4214 net.cpp:124] Setting up conv1
I1128 14:59:48.817735  4214 net.cpp:131] Top shape: 128 20 92 92 (21667840)
I1128 14:59:48.817770  4214 net.cpp:139] Memory required for data: 91405312
I1128 14:59:48.817858  4214 layer_factory.hpp:77] Creating layer relu1
I1128 14:59:48.817914  4214 net.cpp:86] Creating Layer relu1
I1128 14:59:48.817943  4214 net.cpp:408] relu1 <- conv1
I1128 14:59:48.817975  4214 net.cpp:369] relu1 -> conv1 (in-place)
I1128 14:59:48.818023  4214 net.cpp:124] Setting up relu1
I1128 14:59:48.818048  4214 net.cpp:131] Top shape: 128 20 92 92 (21667840)
I1128 14:59:48.818073  4214 net.cpp:139] Memory required for data: 178076672
I1128 14:59:48.818091  4214 layer_factory.hpp:77] Creating layer pool1
I1128 14:59:48.818121  4214 net.cpp:86] Creating Layer pool1
I1128 14:59:48.818138  4214 net.cpp:408] pool1 <- conv1
I1128 14:59:48.818166  4214 net.cpp:382] pool1 -> pool1
I1128 14:59:48.818406  4214 net.cpp:124] Setting up pool1
I1128 14:59:48.818439  4214 net.cpp:131] Top shape: 128 20 46 46 (5416960)
I1128 14:59:48.818465  4214 net.cpp:139] Memory required for data: 199744512
I1128 14:59:48.818483  4214 layer_factory.hpp:77] Creating layer dropout1
I1128 14:59:48.818519  4214 net.cpp:86] Creating Layer dropout1
I1128 14:59:48.818547  4214 net.cpp:408] dropout1 <- pool1
I1128 14:59:48.818575  4214 net.cpp:369] dropout1 -> pool1 (in-place)
I1128 14:59:48.818691  4214 net.cpp:124] Setting up dropout1
I1128 14:59:48.818717  4214 net.cpp:131] Top shape: 128 20 46 46 (5416960)
I1128 14:59:48.818744  4214 net.cpp:139] Memory required for data: 221412352
I1128 14:59:48.818763  4214 layer_factory.hpp:77] Creating layer conv2
I1128 14:59:48.818810  4214 net.cpp:86] Creating Layer conv2
I1128 14:59:48.818836  4214 net.cpp:408] conv2 <- pool1
I1128 14:59:48.818871  4214 net.cpp:382] conv2 -> conv2
I1128 14:59:48.823199  4214 net.cpp:124] Setting up conv2
I1128 14:59:48.823259  4214 net.cpp:131] Top shape: 128 48 42 42 (10838016)
I1128 14:59:48.823359  4214 net.cpp:139] Memory required for data: 264764416
I1128 14:59:48.823420  4214 layer_factory.hpp:77] Creating layer relu2
I1128 14:59:48.823454  4214 net.cpp:86] Creating Layer relu2
I1128 14:59:48.823475  4214 net.cpp:408] relu2 <- conv2
I1128 14:59:48.823498  4214 net.cpp:369] relu2 -> conv2 (in-place)
I1128 14:59:48.823531  4214 net.cpp:124] Setting up relu2
I1128 14:59:48.823547  4214 net.cpp:131] Top shape: 128 48 42 42 (10838016)
I1128 14:59:48.823566  4214 net.cpp:139] Memory required for data: 308116480
I1128 14:59:48.823629  4214 layer_factory.hpp:77] Creating layer pool2
I1128 14:59:48.823657  4214 net.cpp:86] Creating Layer pool2
I1128 14:59:48.823674  4214 net.cpp:408] pool2 <- conv2
I1128 14:59:48.823696  4214 net.cpp:382] pool2 -> pool2
I1128 14:59:48.823882  4214 net.cpp:124] Setting up pool2
I1128 14:59:48.823909  4214 net.cpp:131] Top shape: 128 48 21 21 (2709504)
I1128 14:59:48.823928  4214 net.cpp:139] Memory required for data: 318954496
I1128 14:59:48.823941  4214 layer_factory.hpp:77] Creating layer dropout2
I1128 14:59:48.823968  4214 net.cpp:86] Creating Layer dropout2
I1128 14:59:48.823987  4214 net.cpp:408] dropout2 <- pool2
I1128 14:59:48.824008  4214 net.cpp:369] dropout2 -> pool2 (in-place)
I1128 14:59:48.824091  4214 net.cpp:124] Setting up dropout2
I1128 14:59:48.824111  4214 net.cpp:131] Top shape: 128 48 21 21 (2709504)
I1128 14:59:48.824136  4214 net.cpp:139] Memory required for data: 329792512
I1128 14:59:48.824149  4214 layer_factory.hpp:77] Creating layer conv3
I1128 14:59:48.824184  4214 net.cpp:86] Creating Layer conv3
I1128 14:59:48.824203  4214 net.cpp:408] conv3 <- pool2
I1128 14:59:48.824226  4214 net.cpp:382] conv3 -> conv3
I1128 14:59:48.826668  4214 net.cpp:124] Setting up conv3
I1128 14:59:48.826697  4214 net.cpp:131] Top shape: 128 64 19 19 (2957312)
I1128 14:59:48.826717  4214 net.cpp:139] Memory required for data: 341621760
I1128 14:59:48.826750  4214 layer_factory.hpp:77] Creating layer relu3
I1128 14:59:48.826776  4214 net.cpp:86] Creating Layer relu3
I1128 14:59:48.826794  4214 net.cpp:408] relu3 <- conv3
I1128 14:59:48.826817  4214 net.cpp:369] relu3 -> conv3 (in-place)
I1128 14:59:48.826843  4214 net.cpp:124] Setting up relu3
I1128 14:59:48.826860  4214 net.cpp:131] Top shape: 128 64 19 19 (2957312)
I1128 14:59:48.826879  4214 net.cpp:139] Memory required for data: 353451008
I1128 14:59:48.826891  4214 layer_factory.hpp:77] Creating layer dropout3
I1128 14:59:48.826910  4214 net.cpp:86] Creating Layer dropout3
I1128 14:59:48.826930  4214 net.cpp:408] dropout3 <- conv3
I1128 14:59:48.826951  4214 net.cpp:369] dropout3 -> conv3 (in-place)
I1128 14:59:48.827039  4214 net.cpp:124] Setting up dropout3
I1128 14:59:48.827061  4214 net.cpp:131] Top shape: 128 64 19 19 (2957312)
I1128 14:59:48.827088  4214 net.cpp:139] Memory required for data: 365280256
I1128 14:59:48.827105  4214 layer_factory.hpp:77] Creating layer fc5
I1128 14:59:48.827137  4214 net.cpp:86] Creating Layer fc5
I1128 14:59:48.827157  4214 net.cpp:408] fc5 <- conv3
I1128 14:59:48.827184  4214 net.cpp:382] fc5 -> fc5
I1128 14:59:49.036669  4214 net.cpp:124] Setting up fc5
I1128 14:59:49.036729  4214 net.cpp:131] Top shape: 128 500 (64000)
I1128 14:59:49.036756  4214 net.cpp:139] Memory required for data: 365536256
I1128 14:59:49.036785  4214 layer_factory.hpp:77] Creating layer drop4
I1128 14:59:49.036819  4214 net.cpp:86] Creating Layer drop4
I1128 14:59:49.036836  4214 net.cpp:408] drop4 <- fc5
I1128 14:59:49.036856  4214 net.cpp:369] drop4 -> fc5 (in-place)
I1128 14:59:49.036927  4214 net.cpp:124] Setting up drop4
I1128 14:59:49.036948  4214 net.cpp:131] Top shape: 128 500 (64000)
I1128 14:59:49.036967  4214 net.cpp:139] Memory required for data: 365792256
I1128 14:59:49.036978  4214 layer_factory.hpp:77] Creating layer fc6
I1128 14:59:49.037003  4214 net.cpp:86] Creating Layer fc6
I1128 14:59:49.037065  4214 net.cpp:408] fc6 <- fc5
I1128 14:59:49.037086  4214 net.cpp:382] fc6 -> fc6
I1128 14:59:49.037590  4214 net.cpp:124] Setting up fc6
I1128 14:59:49.037638  4214 net.cpp:131] Top shape: 128 30 (3840)
I1128 14:59:49.037657  4214 net.cpp:139] Memory required for data: 365807616
I1128 14:59:49.037685  4214 layer_factory.hpp:77] Creating layer loss
I1128 14:59:49.037708  4214 net.cpp:86] Creating Layer loss
I1128 14:59:49.037720  4214 net.cpp:408] loss <- fc6
I1128 14:59:49.037734  4214 net.cpp:408] loss <- label
I1128 14:59:49.037755  4214 net.cpp:382] loss -> loss
I1128 14:59:49.037837  4214 net.cpp:124] Setting up loss
…
I1128 14:59:49.039192  4214 solver.cpp:190] Creating test net (#0) specified by net file: models/Example/example.prototxt
I1128 14:59:49.039366  4214 net.cpp:296] The NetState phase (1) differed from the phase (0) specified by a rule in layer MyData
I1128 14:59:49.039419  4214 net.cpp:53] Initializing net from parameters: 
name: "example_Network"
state {
  phase: TEST
}
layer {
  name: "MyData"
  type: "HDF5Data"
  top: "data"
  top: "label"
  include {
    phase: TEST
  }
  hdf5_data_param {
    source: "dataset/val_data_list.txt"
    batch_size: 540
  }
}
layer {
  name: "conv1"
  type: "Convolution"
  bottom: "data"
  top: "conv1"
  param {
    lr_mult: 1
    decay_mult: 1
  }
  param {
    lr_mult: 2
    decay_mult: 0
  }
  convolution_param {
    num_output: 20
    kernel_size: 5
    stride: 1
    weight_filler {
      type: "xavier"
      variance_norm: AVERAGE
    }
    bias_filler {
      type: "constant"
      value: 0
    }
  }
}
layer {
  name: "relu1"
  type: "ReLU"
  bottom: "conv1"
  top: "conv1"
}
layer {
  name: "pool1"
  type: "Pooling"
  bottom: "conv1"
  top: "pool1"
  pooling_param {
    pool: MAX
    kernel_size: 2
    stride: 2
  }
}
layer {
  name: "dropout1"
  type: "Dropout"
  bottom: "pool1"
  top: "pool1"
  dropout_param {
    dropout_ratio: 0.1
  }
}
layer {
  name: "conv2"
  type: "Convolution"
  bottom: "pool1"
  top: "conv2"
  param {
    lr_mult: 1
    decay_mult: 1
  }
  param {
    lr_mult: 2
    decay_mult: 0
  }
  convolution_param {
    num_output: 48
    kernel_size: 5
    stride: 1
    weight_filler {
      type: "xavier"
      variance_norm: AVERAGE
    }
    bias_filler {
      type: "constant"
      value: 0
    }
  }
}
layer {
  name: "relu2"
  type: "ReLU"
  bottom: "conv2"
  top: "conv2"
}
layer {
  name: "pool2"
  type: "Pooling"
  bottom: "conv2"
  top: "pool2"
  pooling_param {
    pool: MAX
    kernel_size: 2
    stride: 2
  }
}
layer {
  name: "dropout2"
  type: "Dropout"
  bottom: "pool2"
  top: "pool2"
  dropout_param {
    dropout_ratio: 0.3
  }
}
layer {
  name: "conv3"
  type: "Convolution"
  bottom: "pool2"
  top: "conv3"
  param {
    lr_mult: 1
    decay_mult: 1
  }
  param {
    lr_mult: 2
    decay_mult: 0
  }
  convolution_param {
    num_output: 64
    kernel_size: 3
    stride: 1
    weight_filler {
      type: "xavier"
      variance_norm: AVERAGE
    }
    bias_filler {
      type: "constant"
      value: 0
    }
  }
}
layer {
  name: "relu3"
  type: "ReLU"
  bottom: "conv3"
  top: "conv3"
}
layer {
  name: "dropout3"
  type: "Dropout"
  bottom: "conv3"
  top: "conv3"
  dropout_param {
    dropout_ratio: 0.5
  }
}
layer {
  name: "fc5"
  type: "InnerProduct"
  bottom: "conv3"
  top: "fc5"
  param {
    lr_mult: 10
    decay_mult: 1
  }
  param {
    lr_mult: 20
    decay_mult: 0
  }
  inner_product_param {
    num_output: 500
    weight_filler {
      type: "xavier"
      variance_norm: AVERAGE
    }
    bias_filler {
      type: "constant"
      value: 0
    }
  }
}
layer {
  name: "drop4"
  type: "Dropout"
  bottom: "fc5"
  top: "fc5"
  dropout_param {
    dropout_ratio: 0.5
  }
}
layer {
  name: "fc6"
  type: "InnerProduct"
  bottom: "fc5"
  top: "fc6"
  param {
    lr_mult: 10
    decay_mult: 1
  }
  param {
    lr_mult: 20
    decay_mult: 0
  }
  inner_product_param {
    num_output: 30
    weight_filler {
      type: "xavier"
      variance_norm: AVERAGE
    }
    bias_filler {
      type: "constant"
      value: 0
    }
  }
}
layer {
  name: "loss"
  type: "EuclideanLoss"
  bottom: "fc6"
  bottom: "label"
  top: "loss"
}
I1128 14:59:49.040089  4214 layer_factory.hpp:77] Creating layer MyData
I1128 14:59:49.040118  4214 net.cpp:86] Creating Layer MyData
I1128 14:59:49.040133  4214 net.cpp:382] MyData -> data
I1128 14:59:49.040159  4214 net.cpp:382] MyData -> label
I1128 14:59:49.040177  4214 hdf5_data_layer.cpp:81] Loading list of HDF5 filenames from: dataset/val_data_list.txt
I1128 14:59:49.041852  4214 hdf5_data_layer.cpp:95] Number of HDF5 files: 1
I1128 14:59:49.077498  4214 net.cpp:124] Setting up MyData
I1128 14:59:49.077560  4214 net.cpp:131] Top shape: 540 1 96 96 (4976640)
I1128 14:59:49.077613  4214 net.cpp:131] Top shape: 540 30 (16200)
I1128 14:59:49.077630  4214 net.cpp:139] Memory required for data: 19971360
I1128 14:59:49.077649  4214 layer_factory.hpp:77] Creating layer conv1
I1128 14:59:49.077693  4214 net.cpp:86] Creating Layer conv1
I1128 14:59:49.077706  4214 net.cpp:408] conv1 <- data
I1128 14:59:49.077728  4214 net.cpp:382] conv1 -> conv1
I1128 14:59:49.078341  4214 net.cpp:124] Setting up conv1
I1128 14:59:49.078369  4214 net.cpp:131] Top shape: 540 20 92 92 (91411200)
I1128 14:59:49.078428  4214 net.cpp:139] Memory required for data: 385616160
I1128 14:59:49.078460  4214 layer_factory.hpp:77] Creating layer relu1
I1128 14:59:49.078483  4214 net.cpp:86] Creating Layer relu1
I1128 14:59:49.078495  4214 net.cpp:408] relu1 <- conv1
I1128 14:59:49.078508  4214 net.cpp:369] relu1 -> conv1 (in-place)
I1128 14:59:49.078526  4214 net.cpp:124] Setting up relu1
I1128 14:59:49.078536  4214 net.cpp:131] Top shape: 540 20 92 92 (91411200)
I1128 14:59:49.078550  4214 net.cpp:139] Memory required for data: 751260960
I1128 14:59:49.078560  4214 layer_factory.hpp:77] Creating layer pool1
I1128 14:59:49.078577  4214 net.cpp:86] Creating Layer pool1
I1128 14:59:49.078588  4214 net.cpp:408] pool1 <- conv1
I1128 14:59:49.078600  4214 net.cpp:382] pool1 -> pool1
I1128 14:59:49.078681  4214 net.cpp:124] Setting up pool1
I1128 14:59:49.078696  4214 net.cpp:131] Top shape: 540 20 46 46 (22852800)
I1128 14:59:49.078711  4214 net.cpp:139] Memory required for data: 842672160
I1128 14:59:49.078722  4214 layer_factory.hpp:77] Creating layer dropout1
I1128 14:59:49.078742  4214 net.cpp:86] Creating Layer dropout1
I1128 14:59:49.078752  4214 net.cpp:408] dropout1 <- pool1
I1128 14:59:49.078766  4214 net.cpp:369] dropout1 -> pool1 (in-place)
I1128 14:59:49.078814  4214 net.cpp:124] Setting up dropout1
I1128 14:59:49.078827  4214 net.cpp:131] Top shape: 540 20 46 46 (22852800)
I1128 14:59:49.078845  4214 net.cpp:139] Memory required for data: 934083360
I1128 14:59:49.078861  4214 layer_factory.hpp:77] Creating layer conv2
I1128 14:59:49.078914  4214 net.cpp:86] Creating Layer conv2
I1128 14:59:49.078928  4214 net.cpp:408] conv2 <- pool1
I1128 14:59:49.078944  4214 net.cpp:382] conv2 -> conv2
I1128 14:59:49.079962  4214 net.cpp:124] Setting up conv2
I1128 14:59:49.079994  4214 net.cpp:131] Top shape: 540 48 42 42 (45722880)
I1128 14:59:49.080013  4214 net.cpp:139] Memory required for data: 1116974880
I1128 14:59:49.080040  4214 layer_factory.hpp:77] Creating layer relu2
I1128 14:59:49.080060  4214 net.cpp:86] Creating Layer relu2
I1128 14:59:49.080071  4214 net.cpp:408] relu2 <- conv2
I1128 14:59:49.080174  4214 net.cpp:369] relu2 -> conv2 (in-place)
I1128 14:59:49.080194  4214 net.cpp:124] Setting up relu2
I1128 14:59:49.080205  4214 net.cpp:131] Top shape: 540 48 42 42 (45722880)
I1128 14:59:49.080221  4214 net.cpp:139] Memory required for data: 1299866400
I1128 14:59:49.080232  4214 layer_factory.hpp:77] Creating layer pool2
I1128 14:59:49.080248  4214 net.cpp:86] Creating Layer pool2
I1128 14:59:49.080260  4214 net.cpp:408] pool2 <- conv2
I1128 14:59:49.080273  4214 net.cpp:382] pool2 -> pool2
I1128 14:59:49.080363  4214 net.cpp:124] Setting up pool2
I1128 14:59:49.080377  4214 net.cpp:131] Top shape: 540 48 21 21 (11430720)
I1128 14:59:49.080394  4214 net.cpp:139] Memory required for data: 1345589280
I1128 14:59:49.080405  4214 layer_factory.hpp:77] Creating layer dropout2
I1128 14:59:49.080425  4214 net.cpp:86] Creating Layer dropout2
I1128 14:59:49.080437  4214 net.cpp:408] dropout2 <- pool2
I1128 14:59:49.080454  4214 net.cpp:369] dropout2 -> pool2 (in-place)
I1128 14:59:49.080562  4214 net.cpp:124] Setting up dropout2
I1128 14:59:49.080602  4214 net.cpp:131] Top shape: 540 48 21 21 (11430720)
I1128 14:59:49.080677  4214 net.cpp:139] Memory required for data: 1391312160
I1128 14:59:49.080690  4214 layer_factory.hpp:77] Creating layer conv3
I1128 14:59:49.080727  4214 net.cpp:86] Creating Layer conv3
I1128 14:59:49.080739  4214 net.cpp:408] conv3 <- pool2
I1128 14:59:49.080756  4214 net.cpp:382] conv3 -> conv3
I1128 14:59:49.081698  4214 net.cpp:124] Setting up conv3
I1128 14:59:49.081722  4214 net.cpp:131] Top shape: 540 64 19 19 (12476160)
I1128 14:59:49.081758  4214 net.cpp:139] Memory required for data: 1441216800
I1128 14:59:49.081782  4214 layer_factory.hpp:77] Creating layer relu3
I1128 14:59:49.081800  4214 net.cpp:86] Creating Layer relu3
I1128 14:59:49.081811  4214 net.cpp:408] relu3 <- conv3
I1128 14:59:49.081825  4214 net.cpp:369] relu3 -> conv3 (in-place)
I1128 14:59:49.081841  4214 net.cpp:124] Setting up relu3
I1128 14:59:49.081851  4214 net.cpp:131] Top shape: 540 64 19 19 (12476160)
I1128 14:59:49.081866  4214 net.cpp:139] Memory required for data: 1491121440
I1128 14:59:49.081876  4214 layer_factory.hpp:77] Creating layer dropout3
I1128 14:59:49.081890  4214 net.cpp:86] Creating Layer dropout3
I1128 14:59:49.081900  4214 net.cpp:408] dropout3 <- conv3
I1128 14:59:49.081913  4214 net.cpp:369] dropout3 -> conv3 (in-place)
I1128 14:59:49.081961  4214 net.cpp:124] Setting up dropout3
I1128 14:59:49.081975  4214 net.cpp:131] Top shape: 540 64 19 19 (12476160)
I1128 14:59:49.081990  4214 net.cpp:139] Memory required for data: 1541026080
I1128 14:59:49.082000  4214 layer_factory.hpp:77] Creating layer fc5
I1128 14:59:49.082026  4214 net.cpp:86] Creating Layer fc5
I1128 14:59:49.082036  4214 net.cpp:408] fc5 <- conv3
I1128 14:59:49.082053  4214 net.cpp:382] fc5 -> fc5
I1128 14:59:49.276615  4214 net.cpp:124] Setting up fc5
I1128 14:59:49.276736  4214 net.cpp:131] Top shape: 540 500 (270000)
I1128 14:59:49.276778  4214 net.cpp:139] Memory required for data: 1542106080
I1128 14:59:49.276837  4214 layer_factory.hpp:77] Creating layer drop4
I1128 14:59:49.276865  4214 net.cpp:86] Creating Layer drop4
I1128 14:59:49.276883  4214 net.cpp:408] drop4 <- fc5
I1128 14:59:49.276906  4214 net.cpp:369] drop4 -> fc5 (in-place)
I1128 14:59:49.276996  4214 net.cpp:124] Setting up drop4
I1128 14:59:49.277011  4214 net.cpp:131] Top shape: 540 500 (270000)
I1128 14:59:49.277029  4214 net.cpp:139] Memory required for data: 1543186080
I1128 14:59:49.277040  4214 layer_factory.hpp:77] Creating layer fc6
I1128 14:59:49.277060  4214 net.cpp:86] Creating Layer fc6
I1128 14:59:49.277072  4214 net.cpp:408] fc6 <- fc5
I1128 14:59:49.277089  4214 net.cpp:382] fc6 -> fc6
I1128 14:59:49.277578  4214 net.cpp:124] Setting up fc6
I1128 14:59:49.277602  4214 net.cpp:131] Top shape: 540 30 (16200)
I1128 14:59:49.277618  4214 net.cpp:139] Memory required for data: 1543250880
I1128 14:59:49.277652  4214 layer_factory.hpp:77] Creating layer loss
I1128 14:59:49.277670  4214 net.cpp:86] Creating Layer loss
I1128 14:59:49.277768  4214 net.cpp:408] loss <- fc6
I1128 14:59:49.277782  4214 net.cpp:408] loss <- label
I1128 14:59:49.277825  4214 net.cpp:382] loss -> loss
I1128 14:59:49.277906  4214 net.cpp:124] Setting up loss
…
